…
but-set-variable -Wno-maybe-uninitialized -fno-math-errno -fno-trapping-math -Werror=format -Werror=cast-function-type -Wno-stringop-overflow, LAPACK_INFO=mkl, PERF_WITH_AVX=1, PERF_WITH_AVX2=1, PERF_WITH_AVX512=1, TORCH_DISABLE_GPU_ASSERTS=ON, TORCH_VERSION=2.1.0, USE_CUDA=ON, USE_CUDNN=ON, USE_EXCEPTION_PTR=1, USE_GFLAGS=OFF, USE_GLOG=OFF, USE_MKL=ON, USE_MKLDNN=ON, USE_MPI=ON, USE_NCCL=ON, USE_NNPACK=ON, USE_OPENMP=ON, USE_ROCM=OFF, 

[Rank #0] | 2024-05-28 at 15:30:35 | INFO | Illustration of model strcutures:
MAE(
  (model): MaskedAutoencoderViT(
    (patch_embed): PatchEmbed(
      (proj): Conv2d(3, 192, kernel_size=(16, 16), stride=(16, 16))
      (norm): Identity()
    )
    (blocks): ModuleList(
      (0-11): 12 x Block(
        (norm1): LayerNorm((192,), eps=1e-06, elementwise_affine=True)
        (attn): Attention(
          (qkv): Linear(in_features=192, out_features=576, bias=True)
          (attn_drop): Dropout(p=0.0, inplace=False)
          (proj): Linear(in_features=192, out_features=192, bias=True)
          (proj_drop): Dropout(p=0.0, inplace=False)
          (identity): Identity()
        )
        (drop_path): Identity()
        (norm2): LayerNorm((192,), eps=1e-06, elementwise_affine=True)
        (mlp): Mlp(
          (fc1): Linear(in_features=192, out_features=768, bias=True)
          (act): GELU(approximate='none')
          (fc2): Linear(in_features=768, out_features=192, bias=True)
          (drop): Dropout(p=0.0, inplace=False)
        )
      )
    )
    (norm): LayerNorm((192,), eps=1e-06, elementwise_affine=True)
    (decoder_embed): Linear(in_features=192, out_features=96, bias=True)
    (decoder_blocks): ModuleList(
      (0): Block(
        (norm1): LayerNorm((96,), eps=1e-06, elementwise_affine=True)
        (attn): Attention(
          (qkv): Linear(in_features=96, out_features=288, bias=True)
          (attn_drop): Dropout(p=0.0, inplace=False)
          (proj): Linear(in_features=96, out_features=96, bias=True)
          (proj_drop): Dropout(p=0.0, inplace=False)
          (identity): Identity()
        )
        (drop_path): Identity()
        (norm2): LayerNorm((96,), eps=1e-06, elementwise_affine=True)
        (mlp): Mlp(
          (fc1): Linear(in_features=96, out_features=384, bias=True)
          (act): GELU(approximate='none')
          (fc2): Linear(in_features=384, out_features=96, bias=True)
          (drop): Dropout(p=0.0, inplace=False)
        )
      )
    )
    (decoder_norm): LayerNorm((96,), eps=1e-06, elementwise_affine=True)
    (decoder_pred): Linear(in_features=96, out_features=768, bias=True)
  )
)
[Rank #0] | 2024-05-28 at 15:30:36 | INFO | Automatic Mixed Precision is enabled!
[Rank #0] | 2024-05-28 at 15:30:36 | INFO | Load pretrained checkpoints from /cnvrg/model/mae_tiny_400e.pth.tar.
[Rank #0] | 2024-05-28 at 15:30:36 | INFO | Model params [] are not loaded
[Rank #0] | 2024-05-28 at 15:30:36 | INFO | State-dict params [] are not used
[Rank #0] | 2024-05-28 at 15:30:36 | INFO | Training start...
…
